deploy/offline_sumo/data/cql_actor.pth (torch, 279278 bytes, 5 tensors)

net.0.weight f4 [256, 11]
000000 7c e9 98 be a7 b9 8c be 04 46 69 3e 18 44 30 be
       -0.29865634 -0.27485391 0.22780615 -0.17213476
000010 83 7c b1 3d a2 da 37 3e ec b4 72 3e 70 d2 48 be
       0.08666327 0.17954496 0.23701829 -0.19611526
000020 4c 03 38 bb 87 0c f2 bd 32 33 26 bb d7 b2 fa 3d
       -0.0028078137 -0.11818796 -0.0025360105 0.12241142
000030 90 c4 24 be 50 06 e6 bd cc 37 8e 3c 8d 25 8b be
       -0.16090608 -0.11231673 0.01736059 -0.27177086
000040 01 9a 95 be 2e e2 c6 3d 0d 99 16 bd 0e bb 8a 3e
       -0.29219058 0.09711109 -0.036767054 0.27095836
000050 34 42 82 be 3d be e6 bc 22 34 93 3e 88 c4 37 3e
       -0.25441134 -0.028166885 0.28750712 0.17946064
000060 93 66 40 3e b0 72 0f bd d4 86 1c be 31 78 8e be
       0.18789129 -0.035021484 -0.15285808 -0.27826074
000070 76 5b 00 3e 03 dc 5c bb cd 8c 1a be c4 89 16 be
       0.1253489 -0.0033700473 -0.15092774 -0.14700991
000080 0d a1 92 bd 58 e2 b1 3d 5d 31 1d be d5 d5 cc bc
       -0.07159624 0.0868575 -0.15350862 -0.025004307
000090 1f a1 7d be 6a 12 84 3e b6 3e 17 3e 4b 40 65 3d
       -0.24768494 0.257953 0.14770016 0.055969518
0000a0 2f ae 20 be b4 e4 56 3e ae 3b 8e be cc e5 19 3e
       -0.15691446 0.20985681 -0.27779907 0.15029067
0000b0 1f 88 2f bd 0e 37 ba 3c 98 15 51 3e 39 b9 ee bd
       -0.042854425 0.02273133 0.20418394 -0.11656422
0000c0 8d 2a 80 be 5a 56 25 be 9b 10 a3 3d 7a 84 57 be
       -0.25032464 -0.16146222 0.079621516 -0.2104663
0000d0 9f ae 85 be 54 59 2a be 24 06 a0 bd 38 22 7f 3e
       -0.26109788 -0.16635638 -0.07813671 0.24915397
0000e0 4a 54 91 be 20 ae 6f 3e df 8e 27 3e 25 d0 d5 3d
       -0.2838462 0.23406267 0.16363095 0.10440091
0000f0 13 63 2c be 29 e3 99 be 4c b7 cf 3c 79 e5 ad 3d
       -0.16834669 -0.30056122 0.025355957 0.08491034
000100 9f 87 5a 3a e9 38 1e 3e 0c 99 92 3e 00 ab 93 be
       0.0008336249 0.15451397 0.2863239 -0.288414
000110 dc 88 8b be 5e d7 c4 3d cd 65 4a 3e 85 54 ac bd
       -0.27252853 0.096113905 0.19765396 -0.08414558
000120 54 d8 70 be c3 31 03 3e ce 8f 82 3e 5a 52 02 be
       -0.23520023 0.12811951 0.2550034 -0.12726727
000130 d1 89 77 be ac 81 68 be 25 2c 4a be 64 29 ff bd
       -0.24173667 -0.22705716 -0.19743402 -0.124590665
000140 6e 5a 11 3e e9 af 43 bc 18 6e 52 be a9 0e b9 3d
       0.14194652 -0.011943796 -0.2054981 0.09035999
000150 ca 64 8a 38 53 56 0f 3e 30 36 17 bd 5e df 08 be
       6.599126e-05 0.13997774 -0.03691691 -0.13366458
000160 f1 ae 41 be 16 80 8f be 9d 46 ad bd ce 4c 7f 3d
       -0.18914391 -0.2802741 -0.08460734 0.062329106
000170 cc 9e 0d be de d1 c4 bc bb 6e c3 3d 96 8a 87 3d
       -0.13830107 -0.024025854 0.095426045 0.0661823
000180 cb 0b b1 bd fc 20 7b be 37 d9 74 be 0d 93 23 3e
       -0.086448275 -0.24524301 -0.23910986 0.15974064
000190 60 6a 40 3d 5b d5 48 3d 7e 76 2b 3e d7 76 91 3e
       0.046976447 0.049031597 0.1674442 0.2841098
0001a0 f8 72 49 be c1 6f 0c 3e b1 f4 91 3e 2f f2 96 3e
       -0.19672763 0.13714506 0.28506997 0.29481646
0001b0 18 8f b5 bd 57 82 61 3d 2a d6 cf 3d fa 4e 35 be
       -0.088651836 0.055055942 0.101482704 -0.17705908
0001c0 9d 98 3d be 31 3c 8b be e1 85 47 3e af c5 1e 3c
       -0.18515249 -0.2719436 0.19484664 0.009690686
0001d0 48 15 a0 3b 87 0f d2 3c f5 af 86 bd d2 b3 3c be
       0.0048853494 0.02564217 -0.0657653 -0.18427971
0001e0 32 49 85 3e db c3 95 be 35 56 86 3e 4d 18 7e 3d
       0.26032406 -0.29250988 0.26237646 0.062034894
0001f0 23 13 30 3e 23 8b 86 be 9c 17 3d bd 5f 5e a6 3d
       0.171948 -0.26278028 -0.046165094 0.081234686
000200 cf cc 93 3d a7 4e 33 bd 36 13 8d 3e b0 71 11 3d
       0.072167985 -0.04377618 0.2755372 0.03550881
000210 f5 06 85 3e 87 00 06 3e 6e ad 45 be 83 8d 7d be
       0.2598187 0.13086139 -0.1930444 -0.24761014
000220 36 71 6b bc 53 3e 4f bd ae 33 93 3e 03 12 5e be
       -0.014370253 -0.050596546 0.28750366 -0.21686558
000230 f9 0d 1b be c6 6a 57 3d bd a9 df bc c2 9e 61 3e
       -0.15142049 0.05259206 -0.027302617 0.22033218
000240 c4 27 90 3e fc 88 67 3e c6 8b 3c 3e ed fa 01 3e
       0.2815534 0.22610849 0.18412694 0.12693377
000250 a5 12 92 ba 0b 64 18 be cc 8c 5b 3e 59 4d 14 3e
       -0.0011144473 -0.14881913 0.21440428 0.14482631
000260 37 0e 59 3e c0 53 42 be 08 97 82 bd 3f 6b 0b 3e
       0.21196829 -0.1897726 -0.06376463 0.1361513
000270 90 a3 6b be 94 b4 b0 3d 70 d4 66 be 15 a4 11 be
       -0.23011613 0.086281925 -0.22541976 -0.14222749
000280 58 95 96 be 47 1e 28 be eb 63 08 be 32 ee 2c bd
       -0.29410815 -0.164178 -0.13319366 -0.04221935
000290 ec f5 40 3e bb b0 2f bd dd 89 0e 3d ea 37 93 be
       0.18843812 -0.042893153 0.034799445 -0.28753597
0002a0 ba 05 38 3e 30 3c 60 3e 22 4b 47 3e aa 5a 94 be
       0.17970935 0.2189796 0.19462255 -0.2897542
0002b0 12 8b 2f be b1 f6 4c 3e 49 dd 84 3e c2 8e 77 3e
       -0.17142895 0.2001598 0.25950077 0.24175552
0002c0 f9 40 10 be e4 13 0c 3e b7 4e a3 3d be 07 76 3e
       -0.14087285 0.13679463 0.07973998 0.24026391
0002d0 1a d8 6f 3d db e0 63 3e 45 60 09 3e c2 c4 70 bd
       0.0585557 0.22253744 0.1341563 -0.058781393
0002e0 9c 67 03 bb 74 32 8b 3e 2e 86 8d 3e 47 9f 49 be
       -0.002005077 0.2718693 0.27641433 -0.19689666
0002f0 49 67 8b be 70 92 5c bc 0d 88 bc bd 88 fe 26 be
       -0.27227238 -0.013462648 -0.09205637 -0.16308033
000300 6f 07 4a 3d 19 38 0c be 06 75 09 be 59 73 91 be
       0.049323495 -0.13693275 -0.13423547 -0.28408316
000310 9b 09 21 3e 80 4d 99 3e 1f 79 05 be c8 76 c1 3c
       0.1572632 0.2994194 -0.13034485 0.02361621
000320 8a d5 c5 3c c0 ea 80 3e d8 46 a6 bd c2 e3 1a bd
       0.024149675 0.251791 -0.08118981 -0.037814863
000330 56 12 43 be f5 15 1b bc 02 fc 6e be d6 81 26 3e
       -0.19049963 -0.009465684 -0.23338321 0.16260466
000340 dc 26 99 be 3e f4 d1 bd 08 69 28 bd ec 05 87 bd
       -0.2991246 -0.102516636 -0.04111579 -0.065929264
000350 d1 5a 70 bd 84 bb 46 bc 0c 4b a7 bd 20 59 60 be
       -0.05868036 -0.012129668 -0.08168611 -0.21908998
000360 66 9a 67 bb 6e 9c 28 3e f2 54 95 3d 94 41 77 be
       -0.0035339831 0.16465923 0.07291593 -0.2414611
000370 b6 de 65 be 8e bc e1 3d 3c 4e f6 3c 2c ce 83 3d
       -0.22448239 0.11022292 0.030066602 0.064358085
000380 7c 42 cb bd 2b 90 87 be 35 a0 a4 3d 11 41 f5 3d
       -0.0992479 -0.2647718 0.080383696 0.11975301
000390 00 40 25 3e e2 d4 c6 bd bd f1 91 3e c4 fd e8 bd
       0.16137695 -0.09708573 0.28504744 -0.11376527
0003a0 59 74 a2 3d 28 40 66 3e c0 9f de bd 0c 3b 7a be
       0.07932348 0.22485411 -0.10870314 -0.24436587
0003b0 df 46 0b bd 36 09 42 3e 08 af 45 be 3d 28 84 be
       -0.034003135 0.18948826 -0.1930505 -0.2581195
0003c0 7b cf 55 3e 5d bd 7d 3d db 8d 8d 3e 9c 1a 90 be
       0.20879929 0.06194817 0.2764729 -0.281453
0003d0 89 35 30 3d f7 33 fe bd 5d 2c 5d 3e 55 56 36 be
       0.043019805 -0.12412255 0.21598954 -0.1780637
0003e0 6c f4 b9 3c 13 15 08 bc 97 a3 61 3c fc ee e7 bd
       0.022699557 -0.008305806 0.013771913 -0.113248795
0003f0 84 e7 8f 3e 4b 25 ee 3d e9 0e 1a 3e 12 20 90 3e
       0.2810632 0.11628207 0.1504475 0.28149468

net.0.bias f4 [256]
000000 0b 24 95 3d fd 99 0b be c3 7f 50 be 55 13 89 be
       0.07282265 -0.1363296 -0.20361237 -0.26772562
000010 6d 9f 32 be d3 c9 0b be ba 56 12 be 38 8e 43 be
       -0.17443629 -0.13651209 -0.14290896 -0.19097221
000020 51 dd b9 bd 69 4e 87 be 88 7d 7e be 85 40 41 3c
       -0.09075416 -0.2642701 -0.24852574 0.011795168
000030 f2 56 10 3d d7 41 0e be db a4 f1 3c 4d 16 ab bd
       0.035239168 -0.13892303 0.029497555 -0.08353863
000040 ab 49 8e 3d 2f 2c 10 3e e3 62 ea bd 1d 90 92 be
       0.06947645 0.14079355 -0.114446424 -0.28625575
000050 4a 06 38 be d8 76 97 be 56 97 8b 3e 80 c3 c2 3d
       -0.17971149 -0.29582858 0.27263898 0.09509945
000060 5d cc 5f 3e 94 ed 91 3d 59 1d 8e 3e f1 6f 2c be
       0.21855302 0.071253926 0.27756765 -0.16839577
000070 33 4f f5 3d a4 a2 a8 bd a5 f4 01 be a4 b5 95 be
       0.11977997 -0.08234146 -0.1269098 -0.29240143
000080 20 1a 70 be d7 c3 cc 3d 45 21 ee bc df c8 b2 3d
       -0.23447466 0.09998291 -0.029068599 0.08729719
000090 77 c7 94 be ed 06 7f 3e dd 2b 7d 3e d2 96 61 bd
       -0.2905843 0.24904986 0.24723764 -0.055075474
0000a0 81 fc 77 bd 4b 29 e5 bd 80 3a 00 3e 8b c8 74 be
       -0.06054354 -0.11189517 0.12522316 -0.23904626
0000b0 7b 29 5c be 16 4b 73 bd de 8a 72 3e c9 02 f6 bb
       -0.21500199 -0.05939778 0.23685786 -0.0075076562
0000c0 6d 48 90 3e 2f 43 ae bd 1c a1 87 3b fb 17 be 3d
       0.28180256 -0.08508908 0.004139079 0.09281918
0000d0 db a1 00 be 8c 2b 8e 3e 72 6a 06 3e 11 42 89 3e
       -0.12561743 0.277676 0.13126543 0.26808217
0000e0 67 07 a3 3d 7d 04 6f 3d 20 b8 03 be 7d 05 9e bb
       0.07960396 0.05835389 -0.12863207 -0.0048224316
0000f0 d7 89 15 3e a9 38 bc 3d 8f 4f 98 bd 03 66 29 be
       0.14603363 0.091904946 -0.074370496 -0.1654282
000100 be 80 6c be 03 ad 89 3e 2a ed dd 3d ab 15 42 be
       -0.23095986 0.2688981 0.10836251 -0.18953578
000110 3a 67 bd bd cb dd a8 3b fa 60 0c bc 06 04 e8 3d
       -0.092482045 0.005153393 -0.008568043 0.113288924
000120 fa 9e 22 3e 29 10 6a 3e 3d cd 9c bd 43 28 32 3e
       0.15880957 0.22857727 -0.076563336 0.17398171
000130 12 b9 be bd 7b fe 4b 3e b3 2e 11 be 42 ff 93 be
       -0.09312643 0.19921295 -0.1417797 -0.28905684
000140 c7 92 e8 bd 47 0a f9 3d 4a 7b 84 be b4 61 6c be
       -0.113561206 0.121601634 -0.25875312 -0.23084146
000150 f7 c5 67 3e 55 5d c2 3d 64 8d 69 be 67 44 f0 3d
       0.22634111 0.09490458 -0.22807842 0.11731797
000160 36 3f 4c 3e f4 c0 3c be 44 ca 56 be ca e9 a4 bd
       0.19945988 -0.18432981 -0.20975596 -0.08052404
000170 4f 78 11 be 8e 49 68 be 90 de 02 3e f5 7d 85 3e
       -0.1420605 -0.22684309 0.12780213 0.2607266
000180 9d 79 6a be 96 61 3c 3d 6a 2e 86 3e 02 dd 3a 3e
       -0.22897954 0.045991503 0.26207286 0.1824837
000190 0a 5c 8e 3e dc 52 52 be 24 4a 55 be ac d1 3a 3e
       0.27804595 -0.20539421 -0.20829064 0.18244046
0001a0 4e 88 8b 3e ef fc 7d be 86 24 90 be 38 d6 43 3e
       0.2725243 -0.24803518 -0.28152865 0.19124687
0001b0 c9 47 88 3d c0 97 81 3e 01 f9 1a be f6 04 97 be
       0.06654317 0.2531109 -0.1513405 -0.29495972
0001c0 3a 45 2f be 67 4a 00 be a5 42 18 3e ae 41 00 3c
       -0.17116252 -0.12528382 0.14869173 0.007828159
0001d0 04 9f 1b be 88 e3 67 be 1a 86 37 3d cb a6 19 be
       -0.15197378 -0.2264539 0.044805624 -0.15005033
0001e0 c5 55 03 3e 38 70 01 3e a2 a6 17 bd f2 9e 12 3e
       0.12825687 0.12640464 -0.037024148 0.14318445
0001f0 67 70 3c 3e db 16 37 3d f9 1f 85 be b2 be 02 bd
       0.18402253 0.04469953 -0.26000956 -0.031920142
000200 f7 d3 fb 3d cc d2 94 3e 34 89 a0 bd 8d 28 f2 bd
       0.122962885 0.29067075 -0.078386694 -0.11824141
000210 93 ce 5b 3d 67 79 5f bd 8e 56 ad 3d 49 ca d5 bd
       0.0536638 -0.054559138 0.084637746 -0.104389735
000220 07 b1 7d be 2c 44 83 3e fa 98 6c be 7f 28 08 be
       -0.24774562 0.2563795 -0.23105231 -0.13296698
000230 d6 7a fb bc 0f 81 24 3e 24 98 f5 bc 93 05 12 3e
       -0.030698221 0.16064857 -0.029979773 0.14259939
000240 92 b5 93 3d 2e 58 3d 3e 4e fb 5e 3e 49 98 b6 3d
       0.07212366 0.18490669 0.21775553 0.08915765
000250 65 39 b2 3d f6 ab 3b 3d 4a 52 8c 3c 62 ea 6b 3e
       0.087023534 0.04581829 0.017129082 0.23038629
000260 c1 61 7e be bf 2d 53 3e 54 19 48 3d a9 27 89 bd
       -0.24841978 0.2062292 0.04885228 -0.06697018
000270 36 0a 8b 3e 97 8e 36 3d 8f 71 8e be 0a b7 02 3e
       0.27156228 0.044569578 -0.27821013 0.12765136
000280 fb fe 2f 3e 0b 98 b8 bd 8b e4 7a bc 1c 0c 7d be
       0.17187111 -0.09013375 -0.015313278 -0.2471165
000290 b1 ee 8b 3e 01 d0 62 3e 47 34 62 be 04 18 09 be
       0.27330545 0.2214966 -0.22090255 -0.13388067
0002a0 ff 61 88 bd cb be 95 3e 76 28 bd bd 3c 32 28 3a
       -0.06659316 0.29247126 -0.09236233 0.0006416177
0002b0 04 a9 61 3d 24 1a 2c bd f9 e1 9a be 83 20 86 be
       0.055092826 -0.042017117 -0.30250528 -0.2619668
0002c0 68 c1 33 be da a3 51 3e 1d 2c 6e bd 81 09 09 be
       -0.17554247 0.2047266 -0.05814754 -0.13382532
0002d0 3b da 5a be 13 c9 c2 3d 15 e3 39 3d ca 65 60 3e
       -0.21372311 0.09511008 0.045382578 0.2191383
0002e0 9e 1a 7d 3d 54 a4 32 be 85 7d a9 bc e3 16 c3 3c
       0.061792962 -0.17445499 -0.020689735 0.023814624
0002f0 82 59 58 3e 13 46 7d 3e ce 3d 08 3e d5 f7 be bd
       0.21127895 0.24733762 0.13304827 -0.09324614
000300 dd 13 8d 3e 8b 0a 00 bd 9e fe 0b be 2b af 08 3e
       0.27554217 -0.031260055 -0.13671347 0.13348071
000310 b4 fe 40 3d 09 35 8c 3d 0a 0b 78 be ab 91 dc 3d
       0.047117904 0.06846053 -0.24222961 0.107699715
000320 ad 24 fe bd 0f 39 13 3e 68 d0 8e 3e 84 ec eb 3d
       -0.12409339 0.14377235 0.27893376 0.11519721
000330 2b f3 eb bc 0e e7 8e be ba 59 85 be e3 a4 22 3d
       -0.028802475 -0.27910656 -0.26045018 0.03970803
000340 21 7f 96 be 5d 1c e5 3d af 4f 12 be 96 8c b5 bd
       -0.29393867 0.111870505 -0.1428821 -0.08864705
000350 db 48 45 3e 36 da 6e be fa a4 75 3e fb 48 a3 bd
       0.19266073 -0.23325428 0.23988715 -0.07972904
000360 3e 9d d3 3d 6f ea f2 bd 11 57 46 be b8 39 bb bd
       0.10332726 -0.11861121 -0.1936915 -0.09141868
000370 4a 10 cb 3d b6 c0 8d 3e 73 d4 b9 3d b5 40 82 3e
       0.09915216 0.2768609 0.090737246 0.25439993
000380 fc e4 6e be 9c f3 63 3e 55 0a 8f 3e 83 7e 33 be
       -0.23329538 0.22260898 0.2793757 -0.17528729
000390 2b bc 74 3d 46 a6 aa 3b 3b 6a 83 be 02 4b f0 3b
       0.059749763 0.0052078096 -0.25666985 0.0073331604
0003a0 da 40 84 3e 04 a1 fc bd bb 73 29 3e 6d 23 96 be
       0.25830728 -0.12335399 0.16548054 -0.29323903
0003b0 59 55 27 3e e1 4a 34 3d 6f 14 13 bd 02 af 18 3e
       0.16341151 0.044016723 -0.03590816 0.1491051
0003c0 40 65 69 be 28 20 ab bc 38 a1 8c 3e 48 0f 8e be
       -0.2279253 -0.020889357 0.2746675 -0.27746034
0003d0 dd a9 5e 3e cf 4b ef 3d de 91 44 be 66 7d 04 3e
       0.21744485 0.11684381 -0.19196269 0.1293846
0003e0 fc 66 89 be cf 06 4b 3d e3 6e 20 3e e0 fa 04 3e
       -0.26836383 0.04956704 0.156673 0.12986326
0003f0 11 e5 66 3e 86 f1 00 3e 1c ef 61 be af 4a ff bd
       0.2254832 0.12592134 -0.22063869 -0.12465417

net.2.weight f4 [256, 256]
000000 95 f3 6a 3d cd b2 72 3c ea 92 50 bd 75 df 32 bd
       0.057361204 0.014813137 -0.05092136 -0.043670136
000010 96 ba 45 bd 1c e4 39 bd 00 76 f8 ba 8f af e8 3c
       -0.048273645 -0.045383558 -0.0018956065 0.028404025
000020 6b e9 48 ba 90 22 6f bd 5f 93 c4 bc c3 82 4f 3b
       -0.00076641765 -0.05838257 -0.023996053 0.0031663633
000030 d9 4a bb 3c 68 2d 02 3d c0 bd 87 ba 08 13 7c 3d
       0.022862839 0.031781584 -0.0010356233 0.061541587
000040 2b d9 29 bd e8 b1 0f 3d 5c f1 c4 3c 0c fe 21 3d
       -0.041466873 0.035081774 0.02404087 0.03954892
000050 2f e0 41 3d 07 27 57 bd fa b4 3a 3d 00 80 32 ba
       0.04733294 -0.052527454 0.04558275 -0.00068092346
000060 3a 38 1b 3c bc e7 ef bc eb d3 1d 3d 0d ff 3e bc
       0.009473855 -0.029285304 0.03853218 -0.0116574885
000070 86 61 73 bd 96 58 2a 3d f0 93 a6 3c 79 35 5c bd
       -0.059419177 0.04158839 0.020334214 -0.053761933
000080 c9 31 c9 bc d0 ae f6 bb bd 2b b3 3c 2c d0 0a 3d
       -0.024559872 -0.0075281635 0.021871442 0.033889934
000090 a0 24 4c bd 1d f8 34 3d c5 cd f3 3c 52 0c 31 3d
       -0.049839616 0.04418193 0.029761204 0.04322464
0000a0 a8 76 a9 3c ae 6c d8 3c 30 b8 c9 3c 82 6f 76 bd
       0.020686463 0.02641901 0.02462396 -0.060164936
0000b0 f5 72 5a 3d d8 b0 19 bc 96 44 a7 3c 5c f1 27 3d
       0.053332288 -0.009380542 0.020418447 0.041001663
0000c0 eb a5 eb 3a 29 62 ae bc 1e ad 68 3d cc b7 c0 bc
       0.0017978525 -0.02128704 0.056805722 -0.023525141
0000d0 c2 7a 18 3d 95 cc de 39 7c e7 57 bd 21 5b 29 3d
       0.037226446 0.00042495565 -0.052710995 0.041346673
0000e0 7c 07 b8 bc 80 32 39 ba c4 66 d0 bc 77 e7 94 bc
       -0.022464506 -0.0007064715 -0.025439627 -0.018176777
0000f0 20 89 92 3c 76 ea b1 3c 7f 52 55 bd 81 89 f0 3c
       0.017887652 0.021718245 -0.052080628 0.029362442
000100 a6 78 5c 3d ac 13 e7 3c 90 1a 68 3d 10 d8 a1 bc
       0.053825997 0.028207622 0.056665957 -0.019756347
000110 84 8d 95 3c 9c a9 17 3d 52 0a 99 3c 64 28 fd bc
       0.018255956 0.037026986 0.018681679 -0.030903049
000120 7c 27 6d 3d cc d4 20 3c 21 cc c0 bb 92 76 d1 3c
       0.057898983 0.00981636 -0.005883709 0.025569234
000130 76 bc 12 3d 1d 00 61 3d 30 62 48 bd b4 bb b2 bc
       0.03582426 0.05493175 -0.048921764 -0.02181802
000140 92 21 a2 3c d1 e1 ed 3c 51 9e 2b bc 80 b6 a0 bc
       0.019791398 0.029038342 -0.010474757 -0.019618273
000150 2a 45 51 bd 78 9e 11 3d a8 a2 d1 bc 59 45 58 3d
       -0.05109135 0.03555152 -0.025590256 0.05280051
000160 f0 cc 59 bc be 58 05 bd 7c ba 48 3d f8 23 78 3d
       -0.01329349 -0.032555334 0.04900597 0.060581177
000170 ec af 70 bc cf 7f 6c bd 6e 37 70 3d 48 54 37 3d
       -0.014690381 -0.057739075 0.058646612 0.04475811
000180 24 da 3e 3d 48 0c ff bc f6 8e 3a bd cd f9 42 3d
       0.046594754 -0.031133786 -0.045546494 0.04760151
000190 08 2d f6 bc e4 0e 49 bd 48 91 75 3c fe 2c 1f bd
       -0.03005077 -0.049086466 0.014988251 -0.038861267
0001a0 ac 6b 5b bd 34 e8 fb 3c 1c 16 73 bd 30 49 2a bd
       -0.05356948 0.030750372 -0.059347257 -0.041573703
0001b0 8c a2 6b 3d ca cc 22 3d d0 76 91 3b 42 43 65 bc
       0.057528064 0.039746083 0.0044392124 -0.013993086
0001c0 20 a8 01 bd 32 9e 6e 3d c1 9b 0e bd 32 71 45 bd
       -0.031654477 0.058256336 -0.034816507 -0.048203655
0001d0 44 2f 34 bd ba b2 4a 3d bc ae 2d bd b4 25 c8 bc
       -0.04399039 0.049486853 -0.042402968 -0.02443204
0001e0 0f 99 7a 3c 58 e2 61 bd a9 37 13 3d b6 05 0f bd
       0.015295281 -0.0551475 0.035941754 -0.034917556
0001f0 50 c7 de bc de ed 24 3d f9 88 1b bd 4f 25 1b 3b
       -0.027194649 0.04026591 -0.037972424 0.002367336
000200 16 81 c9 3c 3a 8c 37 bd ba 77 54 bd 4c 7e a8 bc
       0.024597686 -0.044811465 -0.051871993 -0.020568036
000210 91 cc cb bc 2e 6f 0d 3d a4 10 cc 3c ac 32 6f 3d
       -0.024877818 0.034529857 0.024910279 0.058397934
000220 74 d9 df 3c 32 c4 1f 3d e8 0a 4e 3c 6a da 05 bd
       0.02732537 0.039005466 0.012575842 -0.032679
000230 b9 0f 5e 3d f6 d4 57 bd 2c 99 76 3d e6 7a 87 3c
       0.054214213 -0.05269333 0.06020467 0.016538095
000240 d2 5f 07 3d 8c d5 a3 bc a0 ee 42 3b 38 80 c9 bc
       0.033050366 -0.019999288 0.0029744282 -0.024597272
000250 50 82 db bb 1d 3f 97 bc 78 ce 6e 3d e8 2c ba 3c
       -0.006698884 -0.018462712 0.058302373 0.022726491
000260 3d 0d 3a 3d 54 b3 f5 bc 46 28 fc bb 24 dd 24 bd
       0.04542278 -0.029992737 -0.0076952307 -0.04024996
000270 8b 76 ae 3c 24 6a 26 bd 06 d5 15 bd 3c aa 5a 3d
       0.02129676 -0.040628567 -0.036580108 0.053385004
000280 d0 99 56 3d 00 61 e1 39 76 c6 1d bd 09 ad d7 bc
       0.05239278 0.00042987615 -0.038519345 -0.026327627
000290 9d 6a 3b 3d e6 9e 56 3a 78 c2 3e 3d 30 aa 72 bc
       0.04575597 0.000818713 0.04657218 -0.014811084
0002a0 76 49 1c 3d 6e 2d 25 bc c0 34 3a 3d 0c e1 aa bc
       0.038155995 -0.010081632 0.045460463 -0.020859264
0002b0 e0 55 01 3d b1 d2 4a 3d 06 ee ff 3c 59 43 f6 bc
       0.031576037 0.049517337 0.031241428 -0.03006141
0002c0 fa be 98 3a 12 ee 0a 3d 20 18 e5 3b 98 ab 02 3c
       0.0011653595 0.033918448 0.0069914013 0.007975481
0002d0 e6 5c 5b bd ad e0 7d 3d 66 45 50 bd 00 86 6b 3a
       -0.05355539 0.061981846 -0.050847434 0.0008984506
0002e0 61 73 32 3c 1e 1b fc 3c 5c f5 68 bd 63 ba 75 bd
       0.010891766 0.03077465 -0.056874618 -0.059992205
0002f0 84 83 38 ba 10 26 ef 3b cc 4f 1a 3d 79 cc ca bc
       -0.00070386403 0.0072982386 0.037673756 -0.024755703
000300 0f 98 22 bd da 3b 35 bd 30 0b fd 3c ae 80 67 bd
       -0.039695796 -0.044246532 0.030889124 -0.056519203
000310 16 11 61 3d 7f 54 0b 3d b3 eb 8f bc c0 8e b7 bc
       0.054947935 0.03401613 -0.017568445 -0.022406936
000320 cb c6 52 3d 06 2a 8d 3c a9 54 2d bd 42 9b 44 3d
       0.051459115 0.017231952 -0.042317066 0.047999628
000330 c4 e8 c9 39 9a 85 02 3c b7 3b 60 3d cd d5 37 3d
       0.0003851113 0.007966423 0.05474445 0.04488163
000340 84 87 77 bd a0 01 97 3b 8a e0 20 3d 6d 40 bd 3b
       -0.060431972 0.004608348 0.039276637 0.0057755024
000350 ba 5f 42 3d 20 e7 2b 3b 62 9b 4f 3d 91 a7 03 3d
       0.047454573 0.002623029 0.050685294 0.032142226
000360 d8 e9 0a bc 20 5f 97 bc 50 88 79 3c 60 7b 2c 3c
       -0.008478604 -0.018477976 0.015230253 0.010527462
000370 60 af 67 3d f5 b9 80 3d 14 e0 e9 3c a8 af 45 3d
       0.056563735 0.062854685 0.028549232 0.048263222
000380 72 c5 1d 3c 6e e3 a7 3c 2e 30 3c bd 0c a7 c6 bc
       0.009629594 0.02049419 -0.045944385 -0.024249576
000390 ed fc 05 3d 51 c9 8d 3b e1 e8 6b 3d a9 85 77 3d
       0.032711912 0.0043269773 0.057595138 0.060430203
0003a0 fa e9 7a 3d c0 75 27 3c c4 0b 74 3d ba 5b 02 bd
       0.061258294 0.010220945 0.059581533 -0.03182576
0003b0 36 9e 59 bd df b2 84 bc c0 6f bc 3a 03 cb 77 3d
       -0.053129397 -0.016198574 0.0014376566 0.06049634
0003c0 0c 6a ec 3c e2 78 54 bc f8 fc 7f 3b 58 a6 79 bc
       0.02885916 -0.012968274 0.0039060693 -0.015237413
0003d0 b5 9f 61 bd 9a 9d 77 bd fe 6c 5b bd 51 c3 f4 3b
       -0.05508395 -0.060453035 -0.05357074 0.0074695726
0003e0 37 48 07 bc b2 10 a0 3b 0e ef 1a 3d 05 e1 5a bd
       -0.008256963 0.0048848027 0.037825637 -0.05343725
0003f0 0f 1c 15 bd 37 a1 a2 3c 38 f7 1f bd b4 12 b3 bc
       -0.036403712 0.019852264 -0.039054126 -0.021859504

net.2.bias f4 [256]
000000 b8 0d 81 3d 48 c3 5a bc 8c 04 50 bd a0 08 ec 3c
       0.06301445 -0.013352223 -0.050785586 0.028812706
000010 01 4c 54 bd 80 ab a6 3b 64 80 1d 3d 62 29 38 bc
       -0.051830295 0.0050863624 0.03845252 -0.011240335
000020 1a 0c 63 3d 36 a6 30 3d 76 e6 71 bd 26 a0 b7 3b
       0.055431463 0.04312726 -0.059057675 0.005603808
000030 e0 66 7b 3b f4 95 29 bd 99 7b 55 bd f4 01 55 bd
       0.0038360879 -0.041402772 -0.052119825 -0.052003816
000040 05 e3 03 3b 92 76 0d bc 6d 35 57 bd e9 e0 3e bc
       0.0020124328 -0.008634226 -0.052541185 -0.011650302
000050 ba 21 70 3d 18 f7 7c bc 36 fb db bc 37 65 9e 3c
       0.058625914 -0.015439771 -0.026853185 0.019335372
000060 68 aa 47 3c 85 33 6e 3c b1 a6 1f 3d 70 f5 34 bc
       0.012186624 0.01453865 0.03897733 -0.011044845
000070 ea e4 2a bd e8 17 36 3d 48 35 83 bc 94 e2 23 3d
       -0.041722216 0.044456393 -0.016016617 0.040011004
000080 b0 10 42 bd 52 8b 01 bd b2 b9 5b bc 9a 86 1f 3d
       -0.047379196 -0.031627007 -0.013410972 0.038946725
000090 f4 cc 72 bc 53 18 98 3c 10 d4 9e 3b d4 a5 26 bc
       -0.014819372 0.018566286 0.004847057 -0.010171372
0000a0 8e a0 0b bd 9e ff 29 bd 51 d5 67 3d a5 28 16 bc
       -0.034088664 -0.04150354 0.05659992 -0.009164964
0000b0 21 76 24 bc 57 a3 8d bc 9d 03 40 bc 68 e5 61 bd
       -0.01003793 -0.0172898 -0.0117196115 -0.05515042
0000c0 c3 dc 0c bd 94 3f 84 3c 81 56 37 bd 4d 24 0c bd
       -0.034390222 0.016143598 -0.04476023 -0.034214307
0000d0 c0 ac 76 3d d7 cd 09 3d 38 7e 4f bd bf 61 07 bd
       0.06022334 0.03364357 -0.05065748 -0.033052202
0000e0 74 e0 60 3c 83 88 b7 3c ff 4d 47 bd ef 03 37 3d
       0.013725389 0.022403961 -0.048658367 0.044681486
0000f0 67 08 4c 3c d6 43 3a bd cd 25 67 bd d0 ee 31 bd
       0.012453175 -0.04547485 -0.056432534 -0.04344064
000100 8c 1c 2b 3c bd a5 db bc 3e fb 3a bd 41 47 72 bb
       0.010443818 -0.026812429 -0.04564976 -0.003696874
000110 26 77 f4 3c 30 a4 ed bc 24 69 64 3d 88 90 fb 3c
       0.02984197 -0.029008955 0.055764332 0.030708566
000120 f1 2d 65 bd f4 2c 7b bd 72 df 54 3d 44 e0 2a bb
       -0.055952016 -0.061322168 0.051970907 -0.0026073614
000130 71 d1 69 3c 46 42 1f bd 82 8a 0b 3d 30 39 90 bc
       0.014271126 -0.038881563 0.03406764 -0.017605394
000140 a0 7e 5d 3d 60 25 34 bc 4a a5 12 bd 41 cd 25 3b
       0.054075837 -0.010995239 -0.035802163 0.0025299343
000150 2c 5c 6f bd ec 33 d1 3c 5c b3 54 3d e0 2d 6b bb
       -0.05843751 0.025537454 0.051928863 -0.0035885498
000160 c8 5f 53 bc 90 2b d5 3b 2c a5 2d bd 0c c3 ed bc
       -0.012901254 0.006505437 -0.04239385 -0.02902367
000170 b5 32 04 3d 26 d6 5d bb ad dc df ba 43 97 3d 3d
       0.03227492 -0.0033849566 -0.0017079316 0.046286833
000180 e8 5d aa bc 7c 63 f1 bc 2c a4 73 bc 80 4d 76 3d
       -0.020796731 -0.029466383 -0.014870685 0.060132504
000190 13 9e 64 3d 0e 36 ca 3c 07 80 3a 3d c0 c2 22 bc
       0.055814814 0.024683978 0.045532253 -0.009934127
0001a0 ba b5 22 3d 80 ca 90 3a f8 b4 6b 3c 90 2c 86 3c
       0.03972409 0.0011046678 0.014386408 0.01637867
0001b0 59 51 b5 3c 5a dd 2e 3d 19 f5 a6 bc cd 8d 5d bc
       0.022133516 0.042691566 -0.020380544 -0.0135225775
0001c0 51 ce 1a bd d7 bd 00 bd 9e 13 62 bd 40 e9 60 bc
       -0.037794415 -0.031431045 -0.05519449 -0.013727486
0001d0 0a 08 25 bd 2c 86 7d bd f6 23 12 3d 44 1c 73 3d
       -0.04029087 -0.061895534 0.035678826 0.059353128
0001e0 84 f6 09 3d a6 d7 38 bd 00 36 aa 3c d0 52 29 bd
       0.03368236 -0.045127533 0.020777702 -0.04133874
0001f0 e4 91 fe 3c be ad 34 3d f8 63 ba bc f2 79 9a 3c
       0.031075425 0.044111006 -0.022752747 0.018856976
000200 38 98 a8 bc fa a0 28 bd 15 9f 22 3d 72 2c 18 3d
       -0.020580396 -0.041169144 0.039702494 0.03715176
000210 40 2c e9 3a b2 ed 4e 3c 5c 0e 05 3d 38 ad 43 3d
       0.0017789677 0.012629913 0.032484397 0.047772616
000220 98 e6 38 bc 20 31 6f 3d 6e 3e 57 bd 14 d8 14 3d
       -0.011285447 0.05839646 -0.052549772 0.03633888
000230 f3 7a 27 bd bc 4b b4 bc e0 3e cc 3b de eb 38 bd
       -0.040888738 -0.02200877 0.006233081 -0.045146815
000240 e4 d8 6b 3d f8 c5 cf 3c 36 0f 05 3d 80 1d 02 ba
       0.05757989 0.025362954 0.03248521 -0.0004963502
000250 78 45 bb 3c 80 e5 a6 3b 47 27 7c 3d c8 62 1d bc
       0.022860274 0.0050932765 0.061560895 -0.009606071
000260 52 52 0b 3d 20 12 5f bc 85 40 4e bd 75 f6 2b 3d
       0.034014054 -0.013615161 -0.0503545 0.041983087
000270 87 05 55 3d 70 0a a2 3c fa 40 64 bd 98 4e 79 bd
       0.052007224 0.019780368 -0.05572603 -0.06086597
000280 eb a8 d1 bb 6a cf 17 bd 81 48 16 3d 8e 4d 3e bd
       -0.0063983104 -0.03706304 0.03669024 -0.04646068
000290 3b 67 76 bd 76 6a 30 3d f8 3c 4b 3d 3c c8 05 3d
       -0.060157042 0.04307028 0.04961869 0.03266166
0002a0 e3 76 40 3d 05 41 e3 3b 52 17 2f 3d 17 01 6e bd
       0.04698838 0.006935241 0.04274685 -0.058106508
0002b0 2f 9c 59 bd fc 7e b4 bc 35 2e 70 ba f0 2c be 3b
       -0.053127464 -0.022033207 -0.0009162159 0.005803697
0002c0 29 1b 56 bd 34 44 d1 3c 35 e0 28 3d 78 95 b0 bc
       -0.052271996 0.025545217 0.041229445 -0.021555647
0002d0 f0 53 5c bd d4 6e 56 3d eb 1c b4 3b ec a4 5a bd
       -0.053790987 0.052351788 0.0054966114 -0.053379938
0002e0 3a 41 31 3c a3 c8 e2 3c 20 9c 4b 3b 1d 88 62 3d
       0.010818774 0.027683562 0.00310684 0.05530559
0002f0 69 51 87 3c f8 26 e4 3c 69 04 43 3d 9f f9 c3 3c
       0.016518312 0.027850613 0.047611628 0.02392274
000300 9a e1 10 bc ae 7a 02 bd b0 82 06 3d 8f ec 3f 3d
       -0.00884285 -0.031855278 0.032839477 0.04685646
000310 c0 4a b4 3c 7e 08 3d 3d f4 a5 e7 3c d9 38 5c bb
       0.0220083 0.046150677 0.028277375 -0.003360322
000320 b7 a5 54 3d 1c a3 17 bd 7d 2e 12 3d 6b bd 21 3d
       0.05191585 -0.037020788 0.035688866 0.039487284
000330 5c ad c8 bc c0 c2 97 bb 91 8c 44 bd ec e3 ba 3c
       -0.024496727 -0.0046313703 -0.047985617 0.02281376
000340 3d b1 63 3d f1 52 38 bc 6f c2 d4 bc b1 11 1b bc
       0.05558895 -0.0112502435 -0.02597162 -0.009464667
000350 a8 53 64 bc 44 e7 50 3d 61 eb dd bc 2e e6 23 bc
       -0.013935961 0.051001802 -0.027089776 -0.01000361
000360 32 46 08 bd e7 9b 5d bd 41 be 22 3d 89 52 2d bd
       -0.03327007 -0.05410376 0.03973222 -0.04231504
000370 cc 71 b7 bc dc 83 51 3d 9c 7e 56 3d 3c c0 81 bd
       -0.02239313 0.05115114 0.052366838 -0.06335494
000380 de fd 21 bc 62 a4 0d bd 35 76 f9 3c cb 8d 4c bc
       -0.009887187 -0.034580596 0.030451873 -0.012484978
000390 5a 44 80 3c ba ce 2b 3d d0 b5 5a 3c a8 73 ba 3c
       0.015657593 0.041945197 0.013349012 0.022760227
0003a0 ca 94 fb 3c 46 76 4e 3d 51 f8 b1 bc b4 fc 09 bd
       0.030710597 0.050405763 -0.021724852 -0.033688262
0003b0 77 ab f1 3c 3c 5f 1a 3d 56 fa 1d bd 6b a3 d2 3b
       0.029500706 0.03768848 -0.038568817 0.0064281723
0003c0 f2 f1 92 bc 82 99 54 bd 2b 64 f5 3c dd 6c ad bb
       -0.017937634 -0.05190421 0.02995499 -0.0052925185
0003d0 20 b6 f1 bb be 4b fb bc d3 7b d7 3c a8 c1 37 bd
       -0.0073764473 -0.030675765 0.026304161 -0.04486242
0003e0 40 7e 37 bb 00 e0 b6 b7 6c c6 4c bd 86 d4 0b bd
       -0.0027998835 -2.1800399e-05 -0.049993917 -0.034138225
0003f0 d1 d3 87 3b 77 36 0f bc 0a ca 1c bd c5 c6 31 bc
       0.0041451235 -0.008741013 -0.038278617 -0.010850613

net.4.weight f4 [1, 256]
000000 ba 1e 13 bc 40 23 85 ba 10 8c 62 bc 78 03 eb bc
       -0.008979494 -0.00101576 -0.013827339 -0.028688177
000010 7a 11 c4 39 2a 11 0c bd 40 7e 1e 3d ad 04 f0 bc
       0.00037397054 -0.034196056 0.03869462 -0.029299105
000020 68 92 96 bc b8 c6 51 bc 00 65 ba bb 2e fe 6b 3d
       -0.018380359 -0.012803726 -0.0056883097 0.05761545
000030 80 63 27 3d 00 b4 be 3c ec 75 32 3d 89 c3 eb 3c
       0.040866375 0.02327919 0.04356949 0.028779762
000040 67 18 5a 3c 26 b2 09 bd 25 71 63 bd 80 29 1f 3d
       0.013311482 -0.03361716 -0.055527825 0.038857937
000050 9b 2e ac 3c e2 d2 bd bc 50 f7 04 bd 96 35 5b bd
       0.021018317 -0.023171846 -0.032462418 -0.0535179
000060 1c 46 9c 3c 40 41 40 3c 2f 97 0f bd fa 56 4c 3d
       0.0190764 0.011734307 -0.03505629 0.049887635
000070 50 49 3b 3d 10 9e fc bc 98 53 29 3d e8 95 d1 bc
       0.045724213 -0.030837089 0.041339487 -0.025584176
000080 34 4f 0e bd 02 ad 33 3d b6 7f 03 3c 87 2a e4 3c
       -0.034743503 0.043866165 0.008026054 0.02785231
000090 b4 2d 72 3d 7e ac f7 3c d0 d7 72 bc 0c 5a 3d bd
       0.059125617 0.030233618 -0.0148219615 -0.046228454
0000a0 78 22 12 3c ea 6f 5e bd 7c de 33 bd 7b 4f ce bc
       0.008919351 -0.05430595 -0.04391335 -0.025184384
0000b0 e9 24 aa bc 0b f8 38 3d 07 a1 de bc c9 86 8a bb
       -0.020769553 0.045158427 -0.027176393 -0.0042274934
0000c0 32 d5 73 bd ca f1 44 3d 2b 3d 32 bd 1a 95 28 3d
       -0.05952949 0.04808215 -0.043515366 0.04115782
0000d0 74 32 6f 3b d1 70 05 bd 94 4d b1 bc f8 9d 0e 3d
       0.0036498578 -0.032578293 -0.021643437 0.03481862
0000e0 a7 9b f9 3b 1d d4 97 3c 6a 78 73 bd 02 bb 44 bd
       0.007617432 0.01853376 -0.059441008 -0.048029907
0000f0 18 11 51 bd 3e d6 c0 3b 0e c3 66 3d 9a f5 17 bd
       -0.051041692 0.0058849147 0.056338362 -0.03709946
000100 48 06 d3 3c 8d 8e d3 3c c2 19 17 3d 42 b3 77 3d
       0.025759831 0.02582481 0.0368898 0.060473688
000110 0b 14 9c 3c 1c c2 9c 3c bc c7 0d bd f0 94 6b 3c
       0.019052526 0.019135527 -0.03461431 0.014378771
000120 80 31 d4 bb 8c ed 7d bd ce c5 f8 3a f9 66 5f 3d
       -0.0064756274 -0.06199412 0.0018979849 0.05454156
000130 f2 c6 cb 3c 6b 84 93 3b cc f8 ef 3c 70 a1 4e bc
       0.024875138 0.0045018694 0.02929344 -0.012611732
000140 00 1b 8d b9 70 f5 7a 3d 00 38 69 38 48 76 01 bd
       -0.00026913732 0.061269224 5.5603683e-05 -0.031606942
000150 ff 91 6e 3d 47 35 b0 3c c0 b1 27 bd 04 24 3b 3d
       0.0582447 0.02150978 -0.040941 0.045688644
000160 22 07 de 3c 44 3e fb 3b 60 4c a9 3c bc 7c 6f 3c
       0.02710301 0.0076673348 0.020666301 0.014617141
000170 03 ca fc 3c a6 39 4e bc 27 8f 70 bb 50 71 31 bd
       0.030858045 -0.012586987 -0.003670642 -0.043320954
000180 5e f7 6b bd 48 7d 6e bc 12 79 01 bd 9c a1 d0 3c
       -0.057608955 -0.014556237 -0.031609602 0.025467686
000190 ce 09 26 bd 70 b1 28 3d 20 b7 b6 3c 38 88 82 3c
       -0.040536694 0.041184843 0.022304118 0.015934095
0001a0 38 fd 50 bc 26 12 7a 3d 10 9b 5e bc 20 59 21 3c
       -0.012755685 0.061052464 -0.0135867745 0.009847909
0001b0 cc 17 4b 3d 8a 74 50 bd d3 ca ee 3a 8d 66 42 3d
       0.04958324 -0.05089239 0.0018218405 0.04746108
0001c0 25 61 47 bd 85 75 5d bd d0 aa 14 3d 5e 39 16 3d
       -0.04867663 -0.054067153 0.036295712 0.036675803
0001d0 59 ff e7 bc ee 14 20 3d b6 9b 42 bd fe 01 21 3d
       -0.028320001 0.03908246 -0.04751178 0.03930854
0001e0 20 55 52 3d 38 0e 44 bc 90 97 52 bd 9a b4 4d 3d
       0.051350713 -0.011966281 -0.051414073 0.050221063
0001f0 d8 f3 bc 3c 29 a8 5c bd 84 11 79 3d 8a ae b3 bb
       0.023065493 -0.053871308 0.06080772 -0.005483453
000200 e8 fd 79 3c 6e f3 64 bd 3e 70 62 3d c3 34 eb bb
       0.01525829 -0.055896215 0.055282824 -0.0071779205
000210 98 af 74 bd 5d ab 1f 3d 5e 9d 2c 3d 80 96 07 3c
       -0.05973777 0.038981784 0.042142265 0.008275628
000220 2a 4b 33 bd 44 71 f3 bc 52 eb 23 bd 0d 1e 33 bb
       -0.043772854 -0.029717095 -0.04001934 -0.0027331144
000230 c8 48 66 bd dc ee 56 bd 1c 57 dc bc 10 29 50 bc
       -0.056221753 -0.052473888 -0.026897006 -0.012705103
000240 e2 4f ce bc b8 bf 9a 3c 52 7d 55 bc 9a e1 4f 3d
       -0.025184575 0.018890247 -0.013030367 0.05075226
000250 84 a6 b8 3c ee b2 59 bd 1a 8a 77 bc 6f b1 68 3d
       0.022540338 -0.053149156 -0.01510861 0.05680984
000260 e8 3d d4 3c 3c 14 fd bc b0 4d 5c 3d da 93 52 bb
       0.025908425 -0.030893438 0.053785026 -0.0032131583
000270 b2 59 71 bd 3f 4f 02 bc 42 b9 3a bd 00 46 30 3b
       -0.05892343 -0.007953464 -0.045586832 0.0026897192
000280 a0 52 78 3d 70 5a fd 3b 38 6a bd bb 31 f5 29 bd
       0.060625672 0.0077317283 -0.0057804845 -0.0414936
000290 80 5e 18 3d 86 b4 42 bd 0c e8 75 3d f0 86 4c bd
       0.037199497 -0.04753544 0.06003575 -0.049933374
0002a0 bd 66 6c bd 47 e7 d9 3c 80 a9 97 3b 26 8d c3 3a
       -0.057715166 0.02659954 0.0046283603 0.0014919385
0002b0 8e 0f 19 3d d0 cf 54 bc 80 42 5d 3a e2 f9 13 bd
       0.03736835 -0.0129889995 0.000844039 -0.03612698
0002c0 f6 53 ab 3c f2 15 49 3d 7e 17 d9 3b 3c 34 6a bd
       0.02091406 0.049093194 0.006625115 -0.05717872
0002d0 a7 74 67 bd 9c ee bf 3c a4 cc 0f bd 82 68 0a bd
       -0.056507733 0.023429208 -0.03510727 -0.033791073
0002e0 e8 4d 5b bd 8d 87 b9 3c 4c 6d 6a bd 95 2b 49 bd
       -0.053541094 0.022647643 -0.05723314 -0.04911383
0002f0 16 da 89 3c 55 aa 96 bb 36 07 12 3d d0 8a 47 bc
       0.016827624 -0.004597942 0.035651408 -0.012179092
000300 a9 c3 c6 ba 50 82 42 3c eb 27 a8 bc 9e d4 82 bd
       -0.0015164512 0.011871889 -0.020526847 -0.0638821
000310 4a b9 ba 3b b6 f5 4c bd de 62 2f bd 8d 3c 3e 3c
       0.0056983577 -0.050039016 -0.042818896 0.011611116
000320 63 58 5a 3d c8 fe b2 bc 31 b0 41 3d ee c0 71 3b
       0.05330695 -0.021850005 0.04728717 0.0036888677
000330 20 7a bd bb 24 a2 48 3c 7f 59 03 b9 b6 3c 62 3d
       -0.0057823807 0.012245689 -0.00012526473 0.05523368
000340 9a ab 4e 3d 16 33 02 3c 57 e2 e9 3c d5 06 6c 3d
       0.05045662 0.00794675 0.02855031 0.057623703
000350 d8 5a e2 3c e2 c9 39 3b f4 74 4d bd 42 68 a0 bb
       0.027631208 0.0028349091 -0.050160363 -0.004895241
000360 51 39 2d bd b9 08 93 bc 98 12 6f bd 51 c7 5b bd
       -0.04229099 -0.017948495 -0.05836734 -0.05365688
000370 d1 ed 72 bc a4 ef 8e bc 4f c2 eb 3c 21 f7 ee b9
       -0.014827208 -0.017448254 0.028779177 -0.00045579023
000380 f3 e5 11 bd a7 ac 83 3c 6d c9 d6 3c 88 d0 fa bc
       -0.035619687 0.016073538 0.026219094 -0.030617014
000390 9c 6b e5 bc e0 ad 1f 3d 82 df 33 3d f7 2a 75 bc
       -0.028005414 0.03898418 0.043914326 -0.014963857
0003a0 25 b4 56 3c 94 50 65 bd 45 8c 79 bd 0c 43 6c bd
       0.013104473 -0.05598505 -0.060924787 -0.05768113
0003b0 c5 48 12 bc 7c 01 4c 3d 3f ba 53 3d 2e c5 28 bd
       -0.008928482 0.049806103 0.05169129 -0.04120367
0003c0 2b 6b 76 3d b8 10 32 bd 59 e9 5a 3d e3 e0 bd 3c
       0.060160797 -0.043472975 0.053445194 0.023178523
0003d0 b6 2c 53 bd 81 37 ee bc 24 14 e7 3c 2e 92 37 3d
       -0.05155631 -0.0290792 0.028207846 0.044817142
0003e0 a0 1a b7 bc d8 01 18 bd ae 28 1e bd b2 fe e7 bc
       -0.022351563 -0.037111133 -0.038613014 -0.02831969
0003f0 5f ad de 3b 4c 4e c0 3b 07 bc 95 3c 33 ce 3d bd
       0.00679557 0.0058687087 0.018278135 -0.046339225
